net.pth (torch, 251328 bytes, 10 tensors)

conv1.weight f4 [6, 3, 5, 5]
000000 c2 79 6a 3e c2 ba 4a 3e 5a 7d 48 3e 08 2c c8 3d
       0.2289801 0.19797805 0.19579068 0.09774023
000010 ce c7 e0 3d 4f 7a 23 3e 27 63 44 bd 0b 64 fd bd
       0.1097561 0.15964626 -0.04794612 -0.12372597
000020 a0 47 d0 bd f7 ca b1 3c 97 df da bd 43 df 11 be
       -0.101699114 0.021703226 -0.10687178 -0.14245324
000030 e6 fc 31 bd cf 4c ca bd 4d 69 b5 3c 4a a0 0d 3d
       -0.043454073 -0.09877931 0.022144938 0.03457669
000040 4d 6e 17 be 56 37 5f bd 8f d3 08 be 9a 31 d4 3d
       -0.1478817 -0.05449613 -0.13361953 0.10361023
000050 de 0c a0 bd a9 d7 9b 3c e2 3b 40 be 15 27 8a bb
       -0.07814954 0.019023733 -0.18772843 -0.0042160847
000060 03 8a e4 bd b9 fb 09 3e 68 5a a5 bc e7 7a b9 bd
       -0.11159136 0.13474931 -0.02018471 -0.09056645
000070 d5 14 26 be 87 59 be bd 27 a1 54 bd 7e 7c 29 be
       -0.16218884 -0.0929442 -0.0519115 -0.16551396
000080 8e 50 81 bd 24 fd 07 bd cb 70 a3 3d 00 3e 22 3d
       -0.06314193 -0.033200398 0.07980498 0.03960991
000090 66 d3 55 be fb d7 0c be b6 db da bd 45 90 a9 bd
       -0.20881423 -0.13754265 -0.10686438 -0.0827947
0000a0 54 0b e5 bd 62 14 1a be c8 c2 13 be 78 ec 3f 3c
       -0.11183801 -0.15046838 -0.14429772 0.011714093
0000b0 fa c6 ac 3c b9 2e 42 3e e9 8f 43 bd 2b c4 ba bb
       0.021090973 0.18963136 -0.047744665 -0.0056996546
0000c0 d4 98 51 3d 82 f1 35 3e 4c 84 c3 3d cc 13 6b bc
       0.05117114 0.17767909 0.09546718 -0.014347982
0000d0 85 97 c5 bd 20 05 30 3d 7d ec 5f 3d e6 69 14 3e
       -0.09648041 0.042973638 0.054668892 0.14493522
0000e0 8e 07 8c bd f0 a2 16 be 77 7c d0 bd 9d 92 12 3d
       -0.068373784 -0.14710593 -0.1017999 0.035784353
0000f0 4a 0d 8e bb 75 b2 75 bd 50 ee c8 bd ec 42 f7 bb
       -0.0043350803 -0.059984643 -0.098110795 -0.0075458195
000100 73 c2 59 3d c9 ce 0d 3e 3e 00 5b bd 03 ae 66 3d
       0.053163957 0.13848414 -0.053467028 0.056318294
000110 03 8e 63 bd 1d 9f 11 3e 14 52 a5 3d 66 ca 15 3d
       -0.055555355 0.14220853 0.08072296 0.036569975
000120 71 9e ce 3d 27 95 eb 3d f3 ea 0a 3e 61 99 fc bb
       0.10088814 0.11503058 0.13566189 -0.007708714
000130 cd 58 10 be 6d 96 35 bd fd aa 5e bd b9 7a 01 be
       -0.14096375 -0.04433291 -0.054362286 -0.12644471
000140 64 5b ec bd 33 0b 27 be e9 46 11 bd ff 37 a8 3d
       -0.11540869 -0.16312866 -0.035468016 0.082138054
000150 80 2b 87 bd 51 55 0b 3d a8 b2 b0 3d d0 fe 99 3d
       -0.06600094 0.03401691 0.08627826 0.07519305
000160 cf b7 64 3d 44 c3 58 3d fe 5a e1 bd 51 6a 86 3c
       0.055839356 0.052920595 -0.110036835 0.016408117
000170 b8 36 77 bc 5d eb 04 3e 1c 9e 6e bd 99 76 6e 3b
       -0.01508873 0.12980409 -0.058256254 0.0036386608
000180 43 5d 99 bc 4e 08 4f 3c 47 be 1c 3d 9d 8b 16 3d
       -0.018721228 0.012636257 0.0382674 0.03675424
000190 e6 f8 4f bd 06 f9 30 bd aa d4 95 bd ac a7 09 be
       -0.050774477 -0.043206237 -0.07315953 -0.13442868
0001a0 91 61 a9 bd a1 a7 96 bd 21 b9 18 3d d3 ac 3b 3c
       -0.082705624 -0.073561914 0.037285928 0.011454779
0001b0 22 61 89 bd 4c a9 14 3c 57 4e 56 bc 08 cc 04 3d
       -0.0670798 0.009073567 -0.013080201 0.032421142
0001c0 5e d2 d9 bc 94 3c 48 3d b5 fe 8b 3d 3c 20 a8 bc
       -0.026589569 0.048885897 0.06835691 -0.020523183
0001d0 76 2c 2b 3d 29 fe 04 3e e6 7b 9b bd 12 cf 6d 3d
       0.041790448 0.1298758 -0.07591991 0.058058806
0001e0 25 11 89 bb 72 9c 8c bc 90 54 d6 bd 59 75 42 3d
       -0.004182952 -0.017164443 -0.10465348 0.047475193
0001f0 c3 d9 92 bb 3d bd 87 3d eb 54 d2 3d bc 75 a5 3d
       -0.0044815256 0.06627891 0.10270103 0.08079097
000200 45 40 34 3e f8 c0 4a 3a 27 fd 52 bd 6d 3f e5 3d
       0.17602642 0.0007734443 -0.051510956 0.11193738
000210 d0 44 3e 3d 8d b1 e3 3d 6a 35 15 3e bc 40 77 bc
       0.046452343 0.111178495 0.14571157 -0.0150911175
000220 2a d2 08 3c 2b df 62 3e d4 51 6e 3e eb 76 d4 3d
       0.008350888 0.22155444 0.23273402 0.10374244
000230 a3 8a ac 3d de 8b e7 3c 29 6b b2 3c 5a 19 33 3d
       0.0842488 0.028264936 0.021779614 0.04372535
000240 6f 44 2a 3e 9c 15 0a 3d cb 92 7c 3d 80 43 1f 3e
       0.16627668 0.033712015 0.06166343 0.15553093
000250 84 03 0f 3e 82 f5 da 3d 89 18 ce bd 66 5a e9 bd
       0.13966185 0.10691358 -0.100632735 -0.11394195
000260 b3 b2 b7 bc 3e 6e ec bd d9 fa 57 3d 44 91 aa 3d
       -0.022424078 -0.115444645 0.05272946 0.083284885
000270 56 2e 4f 3d 6d c2 a8 3d ef be 9a 3d 68 41 a1 3d
       0.0505813 0.08240209 0.07555949 0.078738034
000280 a0 28 5e 3d c9 41 d7 3d dd ec 9c 3d 48 ff e8 3d
       0.05423796 0.105105944 0.076623656 0.11376816
000290 b8 54 06 bd d6 7f e2 3d 39 28 88 3e de 5b 7d 3e
       -0.032795638 0.11059539 0.26593187 0.24742076
0002a0 7b 39 1d 3e a5 85 b9 3d 4e 25 0b 3e 89 83 27 3e
       0.15353958 0.09058694 0.1358845 0.1635877
0002b0 55 c2 04 3e c0 14 1e 3e 67 35 e1 3d 97 08 ba bd
       0.12964757 0.15437603 0.10996514 -0.0908367
0002c0 00 98 da bd 6f d3 3c be f3 b9 26 be 5c 9f 94 3c
       -0.10673523 -0.1844003 -0.16281871 0.018142395
0002d0 eb f0 96 bd d8 8d f9 bd f4 75 4b be 52 9e 8a bd
       -0.0737017 -0.12185258 -0.19869214 -0.067684785
0002e0 6e bb 69 bd 21 d2 fd bc 3f 83 cd bc 7f 9c 95 bc
       -0.057063513 -0.030983986 -0.025086997 -0.0182631
0002f0 ad da d4 bd 93 d2 41 3a c6 3c 76 bb 2e 65 f6 bc
       -0.103932716 0.0007393744 -0.0037572845 -0.030077543
000300 e8 09 2c bc 86 72 5f 3c a0 ee 6f bd 48 4f 10 bd
       -0.010500409 0.013638144 -0.05857718 -0.03523186
000310 51 2e 8f bd 82 f7 9f 3d dc 61 dc bc c7 0e 96 bd
       -0.06991256 0.0781088 -0.026902132 -0.07327037
000320 24 33 43 bd 8f e1 f6 bd a2 cb bb bd 19 31 52 bd
       -0.047656193 -0.12054741 -0.09169699 -0.051316354
000330 60 02 23 3e 78 8d 01 be f7 59 e6 bd 40 3b c2 bd
       0.15918875 -0.12651622 -0.11247628 -0.09483957
000340 d2 3d e2 bc 9b 40 52 bc f1 4c 2c be 2f e7 86 bd
       -0.027617369 -0.012832786 -0.16826226 -0.065870635
000350 e6 30 b7 bc ae 75 a7 3d bd 50 a8 bd 19 1f 20 bd
       -0.022362184 0.081767425 -0.082185246 -0.039092157
000360 45 26 78 bd 06 45 77 3d dd 55 71 3d 82 cd 18 3d
       -0.06058337 0.06036856 0.058919776 0.037305363
000370 93 d0 85 3c 60 30 8b 3d 90 ba 08 3d 3b 19 7a 3c
       0.016334808 0.06796336 0.033381045 0.0152648045
000380 52 ed da bd 46 55 be 3d 31 1e 45 ba b5 bb 84 3c
       -0.106897965 0.09293608 -0.00075194525 0.016202787
000390 25 1f c1 3d 86 67 c7 bc 46 68 6a 3b 4a 7b 77 3c
       0.094297685 -0.024341356 0.0035767718 0.015105078
0003a0 dc 87 e8 3d c9 36 df 3d fc db 93 3d 77 ee 18 3d
       0.11354038 0.10899121 0.07219693 0.037336793
0003b0 c0 0b 86 3d 85 ab 24 bd 68 a5 9b 3a fd 79 b0 3d
       0.0654521 -0.040202636 0.0011874856 0.086170174
0003c0 67 26 46 3e da 51 e6 bd 52 e8 e2 bd e7 87 ea bd
       0.19350587 -0.11246081 -0.11079468 -0.114517026
0003d0 33 ba 50 bd 0c fa 37 3e 56 3d 94 bd f3 eb 09 be
       -0.050958823 0.17966479 -0.072382614 -0.13468914
0003e0 f7 a6 05 bd 56 d3 d4 bd d8 7d f8 3c f0 c4 d5 bd
       -0.032629933 -0.10391872 0.030333444 -0.104379535
0003f0 b7 18 b9 bd 5b d8 91 bd 2f 58 bb bd 80 6a d8 bd
       -0.09037917 -0.07121345 -0.09147679 -0.10567188

conv1.bias f4 [6]
000000 bc 5f 96 3c 78 02 4f 3c 69 cb b1 bd 14 ad a8 3b
       0.018356197 0.012634866 -0.086813755 0.0051475856
000010 94 2f 96 3d 65 e3 46 3e
       0.073332936 0.19422682

conv2.weight f4 [16, 6, 5, 5]
000000 c4 19 f7 bc b8 82 0e bd f3 6f bb 3d dd cf e8 3d
       -0.030163653 -0.034792632 0.09152212 0.11367772
000010 35 64 8f 3d d6 64 00 bb 8f 33 65 3d 1a ba 3e 3d
       0.07001535 -0.0019591353 0.055957373 0.0465642
000020 b0 3f 1a 3d 74 92 a4 bd cf ec bc 3d 4e a7 e0 3d
       0.037658393 -0.08035746 0.09224855 0.10969411
000030 15 31 21 3c 2b 7b b4 bd bb 6a bc bd 77 fb 86 bc
       0.009838362 -0.08812555 -0.09200045 -0.01647733
000040 3b 59 c6 bc dc 52 23 3c be 8b bd bc 68 67 e4 3c
       -0.02421247 0.009968486 -0.023137923 0.02788134
000050 28 c4 b4 3d f0 2b 44 3d b7 72 3a 3d 48 4a 21 bb
       0.08826476 0.047893465 0.045519557 -0.0024610925
000060 f5 5d 17 bc d9 72 0e 3d 3a 5e 0b bc 71 fc 58 bd
       -0.00923871 0.034777496 -0.008506352 -0.052975122
000070 75 3d 97 bd 68 61 9f 3d 1c 0b b8 bc 7c 3f a8 bd
       -0.07384769 0.07782251 -0.022466235 -0.08215234
000080 62 e9 c7 bd 8b 77 d2 3c 78 b7 18 3e 2b 6f fe bd
       -0.09761311 0.025691768 0.14913738 -0.12423547
000090 b1 26 09 bd 25 5a 55 3c 7b 29 bb 3d c5 7f 98 3d
       -0.033484165 0.01302198 0.09138771 0.07446245
0000a0 46 40 c0 bd a3 5e 24 3d 0c 48 0c bc a6 ac 7a 3d
       -0.09387259 0.040129315 -0.008562099 0.061199807
0000b0 55 e7 92 3d 78 d1 a8 3d 4f 17 a5 3d ec 71 be 3d
       0.07173029 0.08243078 0.080610864 0.092990726
0000c0 56 68 03 3e 9a 48 2c 3e a5 e1 e1 3d 0e 0f 85 3d
       0.1283277 0.1682457 0.110293664 0.06497012
0000d0 45 31 0b bc 4c c5 2f bd 75 8f dd 3c b0 93 bc 3c
       -0.0084956335 -0.042912766 0.027045945 0.023019642
0000e0 bb 42 93 3d 62 93 b6 3d 5d ee c7 39 71 ae 20 3d
       0.07190462 0.0891483 0.00038133832 0.03922886
0000f0 9f 82 db 3b 2a e3 4e 3d f0 4f 86 3c ee 4b b1 3c
       0.006698921 0.05050961 0.016395539 0.021642651
000100 36 23 34 bd 74 10 a0 3d 31 43 cf bc b4 a5 59 3d
       -0.043978892 0.07815638 -0.025300594 0.053136542
000110 59 72 55 bd 45 d4 1e 3d a7 b3 31 3d b3 00 8f 3d
       -0.052111004 0.038776655 0.04338422 0.06982555
000120 56 a6 ab 3c f8 aa 9d 3d 1b 5c 95 bc f2 74 c4 3b
       0.020953339 0.07698625 -0.018232396 0.0059953863
000130 bf 77 00 3e ea 89 36 3d 18 80 ac 3d c1 84 40 bd
       0.1254568 0.04456512 0.084228694 -0.047001604
000140 80 5d b1 3d 38 bb b5 bc 20 56 85 3d cd 6c ae bd
       0.08660412 -0.022184 0.06510568 -0.08516846
000150 5e 44 bc bd ab b7 b3 3d c2 7c c1 bc b3 e5 dd bd
       -0.091927275 0.08775266 -0.02361906 -0.10834827
000160 5c b4 b9 bd 95 a8 04 bd 0c 4d 97 3d a8 d4 5d bd
       -0.09067604 -0.032387335 0.073877424 -0.054157883
000170 43 12 22 3d 18 82 e6 bd 47 fc 95 bd f1 f7 98 3d
       0.039568197 -0.11255282 -0.07323509 0.07469166
000180 7b 95 08 ba 98 d0 64 3d 39 44 01 bc 71 7e f2 3a
       -0.00052102626 0.055862993 -0.007889801 0.0018500817
000190 75 33 78 bd 33 51 da 3d 17 90 30 3e 53 81 d2 3c
       -0.06059595 0.10660019 0.17242466 0.025696432
0001a0 04 4b 6e 3d c3 74 b9 3d 0e e5 04 3e 52 9b 4e 3d
       0.05817701 0.09055474 0.12978002 0.050441094
0001b0 1a 82 c4 3b c2 65 02 be 71 81 be 3c ff 32 e2 bc
       0.0059969546 -0.1273413 0.023255082 -0.027612207
0001c0 f0 cb e1 3d 9d cf c1 3d f2 28 d3 3d b4 65 3a 3d
       0.11025226 0.09463427 0.10310544 0.045507148
0001d0 5a fa 70 bc 75 e4 96 bd 46 e4 7a bd 44 9d e3 bc
       -0.014708126 -0.073677935 -0.061252855 -0.027784951
0001e0 0d ce 92 3c 70 fc 0c 3b 38 a4 9a 3d 17 ab 1c bd
       0.017920518 0.002151277 0.075508535 -0.0382491
0001f0 de fd 85 3d 82 37 0d 3d 61 50 ab 3d dc 26 61 bc
       0.06542562 0.034476765 0.083649404 -0.013742175
000200 a9 b5 8d 3d c5 6b dd 3d b6 75 22 3d 55 46 a7 3d
       0.069194146 0.10811571 0.03966304 0.08167712
000210 34 c3 90 3d 6c 5c 95 bc 7d ad 26 3d f3 8e 25 bd
       0.07068482 -0.018232547 0.040692795 -0.04041953
000220 1a 8d a2 bd 32 25 fd bd 63 ad 1b bd 04 75 c8 bd
       -0.07937069 -0.1236061 -0.03800715 -0.09787944
000230 c0 69 be bd 47 77 2e be 7f 45 06 be 7c 8e e1 bd
       -0.09297514 -0.17037688 -0.13112448 -0.11013505
000240 75 12 a1 bd bf 1f 85 bd 08 0f e7 bd 04 43 63 be
       -0.078648485 -0.06500196 -0.11282164 -0.22193533
000250 e3 14 7e be 8a 56 27 be f8 a1 83 3d f7 17 33 bc
       -0.24812655 -0.16341606 0.064273775 -0.010931007
000260 e3 a4 87 bc 5d 8a 9f 3b 75 03 25 3d f4 52 00 3d
       -0.016558116 0.004868789 0.0402865 0.03132911
000270 8c 4e a8 bd 99 68 47 bd e1 98 d8 3c 1b 14 70 3d
       -0.082181066 -0.048683736 0.026440086 0.058612924
000280 24 aa 1d bd 72 55 ae bd d5 19 3f bd f1 60 7d 3d
       -0.038492337 -0.08512391 -0.046655495 0.06186003
000290 44 e2 95 3c 51 11 b1 3c 28 fd 97 3d 97 e8 89 3d
       0.018296368 0.021614702 0.074213326 0.06733816
0002a0 cf 9c a4 3c df 07 e3 3d 8f 96 9a 3d 12 71 55 3c
       0.020094303 0.11085486 0.07548248 0.013027446
0002b0 7c c6 0a 3e a1 00 05 3e db fd 17 3d b7 09 c0 3d
       0.13552278 0.12988521 0.03710733 0.09376853
0002c0 f8 3c d3 3d db 60 c1 3d fd d4 04 3c eb 2c 29 3c
       0.10314363 0.09442302 0.008107421 0.010325651
0002d0 4a 12 73 bb 1e 7a 88 bd 8c 16 1b 3d bf d6 7f 3a
       -0.0037089759 -0.06663917 0.0378633 0.00097594777
0002e0 79 ab f9 3c 78 11 de 3c bf 8c f9 3b fa 7b 55 3c
       0.030477272 0.02710794 0.007615655 0.013030047
0002f0 2d 2c e6 bc d0 a0 22 3c 08 05 b5 3d 1e e2 22 3c
       -0.028097237 0.009926036 0.0883885 0.009941606
000300 15 a1 b5 3d 83 48 77 bd f7 27 28 3d 49 33 ae 3c
       0.088686146 -0.060371887 0.04105374 0.021264689
000310 dd 77 94 3d e6 5e 9e 3c 79 76 d9 3c 7d 09 a8 bc
       0.072494246 0.01933236 0.02654575 -0.020512337
000320 41 86 14 be ec ec 5a be 86 73 a9 bd 52 8d 1b be
       -0.14504339 -0.21379441 -0.082739875 -0.15190628
000330 59 64 df bd 24 a5 a4 bd 2f 7f 86 bd 65 10 9c bc
       -0.10907812 -0.080393106 -0.06567227 -0.019050786
000340 3e 5c 9b bc af ab ff ba 24 8e 90 3c af 1e 5d 3d
       -0.018964883 -0.0019506122 0.017645903 0.05398434
000350 d9 90 1e bc 22 f4 bd 3b 21 76 c1 3d d7 d3 6a 3b
       -0.009678089 0.005796925 0.094463594 0.0035831833
000360 59 95 a3 3d db d6 ca 3c 4e 1b 43 3d 7f a1 0a 3c
       0.0798747 0.024760654 0.04763346 0.008461355
000370 97 ce 8f 3d 99 2d fe 3d 0a 74 3a 3d 0d f3 97 3d
       0.07021826 0.12411041 0.04552082 0.07419405
000380 bf 1b e6 3d a0 6e 11 bd 53 e9 f0 bc 3a e9 d5 bd
       0.11235761 -0.03550589 -0.029408133 -0.10444875
000390 b9 ac c1 bd 70 b3 38 bd 51 47 7c bd b3 51 83 bd
       -0.09456772 -0.045093 -0.06159145 -0.06412067
0003a0 b2 0e 22 bc 55 42 e4 bd 4c 08 c6 bc e6 38 63 3d
       -0.009891199 -0.11145464 -0.024173878 0.055474184
0003b0 97 a1 3f bd 21 e5 11 bc 7c a0 91 3d 45 42 fb 3c
       -0.046784963 -0.008904726 0.07110688 0.030671248
0003c0 4d 79 ab bc bd 4f 89 bb 37 e8 40 3d f7 14 54 3d
       -0.020931864 -0.0041904137 0.047096457 0.051777806
0003d0 cf ed bd 3c 0c 83 21 3d 57 c3 99 3d 9c cc 8f 3d
       0.023184685 0.039431617 0.07507961 0.07021448
0003e0 c4 58 e9 3b ae 7f 98 bd 4d 0a 6e 3d c7 41 df bd
       0.0071211774 -0.07446228 0.058115292 -0.10901218
0003f0 08 33 cc 3c e2 3c 9c 3b bc 6b 94 3d 22 50 a1 3c
       0.024926677 0.004768 0.07247111 0.01969153

conv2.bias f4 [16]
000000 6c 02 d6 bd 11 d9 ea bb 15 d5 6c bd ef d7 06 bd
       -0.10449681 -0.0071669896 -0.0578204 -0.032920774
000010 8d 11 5a be 20 ee f6 3d e4 d2 7a 3e 1e b7 4d be
       -0.21295758 0.120571375 0.24494511 -0.20089385
000020 57 cf be bd cf 73 cd 3c fd 85 a9 3e 88 95 2f 3e
       -0.09316891 0.025079636 0.33110037 0.17146885
000030 55 f0 d3 3d 01 a4 85 bb 83 35 59 3c 24 82 58 3d
       0.10348574 -0.0040783887 0.013257387 0.052858487

fc1.weight f4 [120, 400]
000000 21 83 48 bc 27 3d 29 3d a5 ed c7 3c 8e 15 86 3c
       -0.012238295 0.041318085 0.02440531 0.0163677
000010 61 ed 21 3d ae 0f 98 bb 9b 75 1b bb 0f 9b a8 3c
       0.039533023 -0.004640541 -0.0023721221 0.02058175
000020 f7 80 4d 3c 56 41 60 3c de b5 d6 3c ea 11 46 ba
       0.012542955 0.013687452 0.026209768 -0.000755577
000030 08 a8 0a bc 89 4b 5f bd f3 89 bc 3b 48 4f 1e 3d
       -0.008462913 -0.054515395 0.0057537495 0.038649827
000040 ca 3d 2c 3d b1 e0 15 bc 33 53 8e bb 7d aa 22 3d
       0.042051114 -0.009147809 -0.004343414 0.03971337
000050 be 51 91 bc 6e 0b ac bc 78 48 ee bc a7 ec dd bc
       -0.017739173 -0.021001544 -0.02908729 -0.027090384
000060 7e e3 ec 3c f0 8a ba ba c5 ac b5 bc 1d d1 a8 bc
       0.02891707 -0.001423208 -0.02217711 -0.020607525
000070 fa ec 73 3c 21 02 fb 3c f7 39 24 3d 8f 6e 36 bc
       0.014888043 0.030640664 0.040094342 -0.011134758
000080 89 a5 0a bd fa ca fa 3c aa 81 36 3c 1d c3 1c 3d
       -0.033849273 0.030614365 0.011139313 0.038272012
000090 6c 44 a1 3c 5f a4 23 bd ca 59 db 3b 02 a5 fd 3c
       0.019685946 -0.03995168 0.0066940533 0.03096247
0000a0 cb 66 05 3d c0 df 8a bc da ac 0d bd 2c aa 4e bd
       0.032568734 -0.016952395 -0.034588672 -0.050455257
0000b0 ff f6 8a 3c f3 2b 40 bd df c1 e3 3c 35 20 39 bd
       0.01696348 -0.046916913 0.027802406 -0.04519673
0000c0 56 46 06 bd 9b fe 19 3c 4d 8b 30 bd c8 37 37 bc
       -0.03278192 0.009399082 -0.043101598 -0.011182733
0000d0 02 34 e3 3c bf 09 87 bc cf 7a bd bc 2f f6 2c bd
       0.02773476 -0.01648414 -0.023129849 -0.042226966
0000e0 fc f0 29 b9 b1 54 96 3c 6b a9 04 3c 02 ab a7 bc
       -0.0001620687 0.01835093 0.008097033 -0.020467285
0000f0 bf 73 d8 3c e5 03 47 bd 89 7d 18 3c 6b 6c d6 3b
       0.02642238 -0.0485877 0.009307274 0.006543686
000100 b8 32 27 bb 58 7f 1d 3d 3b e2 64 bd 95 8b 6e 3c
       -0.0025512408 0.038451523 -0.055879813 0.014559646
000110 12 3d f3 3b 6a aa 24 3d d2 bc b1 3b 9f fa 57 3c
       0.0074230516 0.040201582 0.0054241205 0.013182311
000120 31 9f 1f 3d 4d 72 86 3c 63 96 53 bd 13 62 62 bd
       0.038970176 0.016411925 -0.05165709 -0.055269312
000130 a3 35 0e bd 08 fe 27 3d 2a 5c ce ba 59 1c d7 bc
       -0.03471912 0.041013747 -0.001574402 -0.026258634
000140 fe 39 2f 3d ad 0b 9b bb 2d aa e1 bc f6 4a 4e bd
       0.042779915 -0.0047316165 -0.027546966 -0.050364457
000150 a5 b7 c6 bc 08 09 fb bc 7c 15 f8 3c d8 e8 60 bd
       -0.02425749 -0.030643955 0.030283682 -0.054909557
000160 4a 04 5c bd 3c 1c e9 bc db c7 0b 3c f7 a7 19 bd
       -0.053715028 -0.028455846 0.008531536 -0.0375137
000170 07 44 ef 3c d1 eb 00 bc 0f d5 74 3c 30 c8 57 bd
       0.029207243 -0.007868723 0.014943375 -0.052681148
000180 46 82 c5 3c 5d 53 36 bd 64 a1 10 bd 74 30 94 bc
       0.02410997 -0.044513095 -0.035310164 -0.01808951
000190 f4 7b 16 bd b5 9b 2b bd 06 c1 00 bd 7f 38 8b ba
       -0.036739305 -0.04189654 -0.03143408 -0.0010621696
0001a0 74 6b 4e bd a0 c8 4d bc 14 82 fd 3c 3a d7 e6 3b
       -0.050395444 -0.01256004 0.030945815 0.0070447
0001b0 99 74 03 bd 49 ec 21 3d f3 6d bd bc 17 b4 4e bd
       -0.032093618 0.03953198 -0.023123717 -0.050464716
0001c0 64 ce 8a bc 81 c7 a1 3c 71 89 ec bc 30 17 30 bd
       -0.016944118 0.019748451 -0.02887413 -0.042990863
0001d0 62 39 22 bc e3 74 2e bd 27 86 c8 bc 2c 50 18 bd
       -0.009901376 -0.04259194 -0.024478031 -0.037185833
0001e0 9b 9d c2 bb f9 79 25 bd 08 a8 11 3d de 3d ea 3b
       -0.005939198 -0.040399525 0.035560638 0.0071484884
0001f0 e2 ca 7f 3c 0f 00 d7 3c 2e b6 17 bc 6d 90 43 3c
       0.015612336 0.026245145 -0.009259744 0.011936289
000200 80 80 2e bd 67 4d 25 bd 4a b0 6e 3c ad b3 e4 bb
       -0.042603016 -0.04035702 0.014568398 -0.006979427
000210 c7 2f 50 bd cf 4a 80 bc 85 fd 02 bd d5 b2 ee bb
       -0.050826814 -0.015660672 -0.031980056 -0.007284502
000220 40 ca 03 3d 38 e3 09 3d 2c dc d8 3c 12 f6 fe bc
       0.032175303 0.03366396 0.026472174 -0.031123195
000230 30 a0 ca 3c fe e4 31 bd 9e 1f f5 3c 0e de 5f bd
       0.024734586 -0.043431275 0.029922303 -0.054655127
000240 b4 d6 ae 3b 9d ec c7 bc a5 95 8b b9 b0 79 4f 3c
       0.005335653 -0.024404818 -0.0002662364 0.01266329
000250 b5 0f 83 3b 01 0b 38 3c b0 3f 8e 3c 20 b1 34 bd
       0.003999675 0.011233092 0.017364353 -0.044114232
000260 07 01 3a 3c 80 b6 1b bd 76 8e 87 3c e6 95 83 bc
       0.011352784 -0.038015842 0.016547423 -0.016062688
000270 ff e6 0a 3d 72 b7 1a 3d 4a 23 11 3d f0 38 e4 3c
       0.0339117 0.037772603 0.035434045 0.027859181
000280 be 0c 88 bb 26 4a 31 3d e2 81 db bc 11 35 41 3c
       -0.0041519096 0.043283604 -0.026795331 0.011792437
000290 15 87 4e 3c 16 1e e5 3b 61 66 54 bb 30 5a 15 3d
       0.012605448 0.006992112 -0.0032409655 0.036462963
0002a0 00 33 55 3c fc e9 46 bd c6 f0 9c 3c ab 62 06 3d
       0.013012648 -0.04856299 0.019157778 0.03280894
0002b0 6f 93 7b 3c 68 65 e8 bc 3a 90 85 3c a0 d0 d1 3c
       0.015354975 -0.028368667 0.016304124 0.025612175
0002c0 f7 d0 92 ba 4c 8e f0 ba d0 99 12 bb 3c c4 d6 3c
       -0.0011201192 -0.0018352955 -0.0022369511 0.026216619
0002d0 63 50 36 39 88 4b 19 3d e8 08 01 bd a4 e6 bd 3b
       0.00017386819 0.037425548 -0.031502634 0.005795317
0002e0 4e d6 48 bd 65 89 8c 3b 4a a3 1f bd ff c4 0f 3d
       -0.049032502 0.0042888396 -0.038974084 0.03509998
0002f0 21 f8 45 bd f1 bf 16 bc f0 ab 20 bd b1 8d c9 bc
       -0.048332337 -0.009201036 -0.039226472 -0.024603697
000300 67 47 17 3d 6f 00 5b bd d0 36 37 bd 31 64 d4 bb
       0.03693333 -0.05346721 -0.044730008 -0.0064816703
000310 a8 78 55 3c 96 62 d9 bc 67 5b 33 bc 0c dd e4 3c
       0.013029255 -0.026536267 -0.010947085 0.027937435
000320 88 fa 4c bb f7 d8 c7 3b ef 1b 83 3c 1e 58 29 bd
       -0.0031277258 0.0060988623 0.01600453 -0.0413438
000330 c5 6f 02 bd 1a 93 39 bb 8b 29 72 bc fe 23 dd bc
       -0.031844873 -0.002831644 -0.014780412 -0.026994701
000340 06 fb 0d bd 2d b9 18 bd 5d a8 63 bb ca 7a 1a 3d
       -0.034663223 -0.037285972 -0.0034737804 0.037714757
000350 84 58 c9 3c b3 09 bc bb 3f 3a 16 bd 5c 88 b3 3c
       0.02457834 -0.005738461 -0.03667664 0.021915607
000360 a5 1e 1e bd a4 3a 4a 3c 95 dc 37 bb c5 b4 c1 bc
       -0.038603444 0.012343083 -0.002805506 -0.023645768
000370 f2 fd 7d bb 52 c5 e1 bb 72 f7 39 bd 09 5f 1a b9
       -0.00387561 -0.0068899775 -0.045401998 -0.00014721988
000380 c3 a7 31 bd 08 43 d8 bc 56 f7 e8 3c ae 75 17 bd
       -0.04337288 -0.02639915 0.028438251 -0.036977462
000390 2c d0 33 bd 55 5e 8f 3c 98 9a 29 3c 70 52 2b bd
       -0.0438997 0.017501036 0.010351799 -0.041826665
0003a0 bc 3b 1e 3d c2 b6 43 bd 02 f5 20 bb 4c 22 1d 3d
       0.038631186 -0.047781713 -0.0024560099 0.038362786
0003b0 30 0b d4 bc c0 a8 45 bd 5b 93 22 bd e6 07 32 3d
       -0.02588424 -0.048256636 -0.03969131 0.043464564
0003c0 7a a8 8f 3c 41 a6 4d bc 05 7d e5 3c 83 3c a6 3c
       0.01753639 -0.012551845 0.028013716 0.020292526
0003d0 eb bd b2 3c f9 73 2e 3b 85 20 40 3a b6 c3 2d bb
       0.021819076 0.0026619418 0.00073290645 -0.0026514358
0003e0 d5 00 0c 3c 78 3e aa bc ce ac 0d 3d 01 b2 20 bd
       0.00854512 -0.02078174 0.034588628 -0.039232258
0003f0 ed 83 2f bc 47 a9 2a 3d ce f2 a4 3c b0 c8 2c bc
       -0.010712606 0.04166534 0.02013531 -0.0105458945

fc1.bias f4 [120]
000000 8f 7c 50 bd ba 41 08 3e 54 21 d1 3c 86 22 0b 3e
       -0.05090004 0.13306323 0.025528587 0.13587388
000010 c1 50 50 bd 9a 59 5d bd be b1 11 3d c2 5e a4 3d
       -0.050858263 -0.05404053 0.0355699 0.08025886
000020 a7 a5 6c 3c c8 88 1b bd 50 49 85 3d 5a a9 47 3e
       0.0144437915 -0.03797224 0.06508124 0.19498196
000030 d3 0b c1 bb dc aa ce bd 15 93 f2 3d 17 b6 13 3e
       -0.005891302 -0.100911826 0.1184446 0.1442493
000040 ec 64 54 bd 46 49 d9 bd b8 aa 58 3c 30 43 be bc
       -0.05185406 -0.10609679 0.013224296 -0.023225397
000050 1a 64 a9 3d c8 32 1c bd f9 ea c9 3d bb 83 46 3e
       0.08271046 -0.038134366 0.098592706 0.19386189
000060 5d b6 2b be 41 10 e3 3b bc 24 b2 3b 40 37 0d bc
       -0.16768785 0.006929428 0.005436508 -0.00861913
000070 af af ef bd 70 e5 9a 3d 19 be 86 3e 00 ac 7c 3c
       -0.11703431 0.07563293 0.26316908 0.015421867
000080 7f 8f 02 3d a5 c4 4c 3c 27 40 02 bd 0a 6b 03 be
       0.03187513 0.012498056 -0.03179946 -0.12833801
000090 67 f2 24 ba db 27 40 3e be 3d 14 3c 39 20 16 3e
       -0.0006292224 0.18765204 0.009047924 0.1466073
0000a0 c1 eb 30 3c 19 85 1c 3c 55 38 47 bd 8b 41 e3 bc
       0.010798396 0.009553217 -0.048637707 -0.027741214
0000b0 6d f7 8b 3e 3b 58 12 3d a6 9e 91 3d 1c 14 65 3c
       0.27337208 0.035728674 0.07110338 0.013981845
0000c0 55 81 aa bd 01 a1 51 bd b1 93 1b bd 2c fa b3 3b
       -0.083254494 -0.051178936 -0.037982646 0.0054924693
0000d0 d1 ac 1d be d8 77 a1 bd 90 1b 8f 3e a0 a3 b8 bc
       -0.15397955 -0.078841865 0.27950716 -0.02253896
0000e0 09 1d 20 3d 47 7e 66 3e 9a 00 cc bd d6 2c 34 bd
       0.03909019 0.22509108 -0.09961052 -0.04398807
0000f0 8c f0 ff bd 7d 3e a2 3c a1 58 5c bc 5c a7 62 bd
       -0.124970526 0.019805187 -0.013448865 -0.055335388
000100 72 29 06 3e 4c 8d 05 3e fe 89 a7 bc 11 6e a9 3c
       0.13101748 0.13042182 -0.020451542 0.020682367
000110 7a b7 10 3e 92 a0 a9 3d 06 a8 54 be fb e4 48 3c
       0.14132491 0.082825795 -0.20767221 0.012261624
000120 cb 0a ab bd b6 45 8b 3e 4c b2 3d 3e cc 0a 0d bd
       -0.08351668 0.27201623 0.18525046 -0.034434125
000130 4d 76 c2 bc ca 29 92 bb 68 41 66 bd 5c 45 36 3e
       -0.02373805 -0.004460548 -0.05621472 0.17799896
000140 39 2f f2 bd b0 e6 6c 3b a5 86 c4 bc 9f a8 93 3d
       -0.11825413 0.0036148243 -0.023989985 0.07209896
000150 49 4e e1 bc 39 2c 34 bd cd f1 e5 bc 3b ed 19 3e
       -0.02750315 -0.043987487 -0.028069401 0.15031902
000160 63 35 df 3c 73 45 7a be a8 f8 10 bd 99 1e b3 bb
       0.027247136 -0.24440555 -0.035393387 -0.005466294
000170 9a 1a 10 3e a8 99 ef 3d bb 6a 20 3d b8 8f 4a bb
       0.14072648 0.116992295 0.039164286 -0.0030908417
000180 eb e9 62 3d 5d 84 cb bc 12 6b bd bc 14 e3 ff 3c
       0.055398863 -0.02484339 -0.023122344 0.031236209
000190 5c 30 e8 3d e8 6d d8 3d 08 ef 53 3e 40 78 7d bd
       0.11337349 0.10567838 0.20696652 -0.061882257
0001a0 3b 59 c8 bd 05 93 ac bd 37 ed 65 bc 1f 01 83 bd
       -0.09782644 -0.08426479 -0.014033607 -0.06396698
0001b0 81 9c 00 3e 4f b3 58 3d 20 0e e4 3c 7b 5c 82 3d
       0.12559702 0.052905377 0.027838767 0.063652955
0001c0 52 9a b2 3d 2b 26 43 bd 14 6c 24 3e 5e 7d 77 3e
       0.087208405 -0.04764382 0.16056854 0.24168918
0001d0 64 98 62 bd dd 27 fe 3d fa 3b 73 be 4d 3d 35 bd
       -0.055321112 0.12409947 -0.23753348 -0.044247914

fc2.weight f4 [84, 120]
000000 81 fc ae bd 19 6e 60 be 1b e5 4b bc e9 30 6e bd
       -0.08544255 -0.21916999 -0.01244476 -0.058152113
000010 fa 1d 95 3d e9 68 ce 3c 96 4f e5 bb db 51 06 bd
       0.07281108 0.02519651 -0.006998013 -0.032792907
000020 7e 3d 81 3d 79 5d 89 bd f8 be 79 3d 22 18 9a 3c
       0.06310557 -0.067072816 0.060973138 0.018810336
000030 9b 3e 26 3e ec ca f6 bd a9 f7 df 3d cf 71 53 3e
       0.1623482 -0.12050423 0.10935909 0.20648883
000040 ac 00 ca bd 66 46 8c bc 9f 7d 1b bd fd bb 9c bd
       -0.098634094 -0.017123412 -0.0379616 -0.076530434
000050 59 00 e1 3d e6 9f 96 bd af 42 0d 3a 27 48 00 be
       0.109863944 -0.07354717 0.000538866 -0.12527524
000060 9a 56 12 be 54 ba 8b bd e9 c0 46 bd 1f 8d 87 3d
       -0.14290848 -0.06822649 -0.048523817 0.066187136
000070 24 95 00 3d ee c7 1d 3d 82 57 ca 3d e9 4e e4 bc
       0.03139223 0.038520746 0.09879972 -0.027869659
000080 0c 46 dd 3c 9d 21 ed bc c6 43 16 3d 5e c0 1e be
       0.02701094 -0.028946692 0.036685728 -0.1550307
000090 b1 ff 91 3d 80 9c 42 bd 0c 13 99 bd b0 b0 aa 3c
       0.071288474 -0.04751253 -0.07474336 0.020836204
0000a0 33 f3 87 bb b7 f6 9f bd b6 0e 9b 3a 4a 80 1d 3d
       -0.0041488647 -0.07810729 0.0011829946 0.038452424
0000b0 b8 85 ff 3d 96 4b af 3d 5a fe dd bc 63 2e ae 3d
       0.12476677 0.08559339 -0.027098823 0.08504941
0000c0 b1 ae 5a 3d 4b 61 48 3d fb 9e 9f bd e1 1d af 3d
       0.053389255 0.04892091 -0.07793995 0.08550621
0000d0 e7 e9 96 bc c7 8f 01 3e dc e1 28 3e 61 c3 aa 3d
       -0.01842208 0.12652503 0.16492409 0.08338047
0000e0 65 2d 80 bd 76 62 02 3e 68 74 05 bd 00 c1 c2 ba
       -0.06258658 0.12732872 -0.032581717 -0.0014858544
0000f0 2e 10 90 3d 87 bd 6e bc a3 5b 8b bd 25 12 18 3d
       0.07034336 -0.014571554 -0.06804588 0.03712668
000100 6a 90 29 3d 37 91 5a bd aa f4 84 3a 42 59 32 bd
       0.04139749 -0.053361144 0.0010143716 -0.043542154
000110 8a 48 46 3d 47 6e 16 3c ac 00 a0 3d b1 4d 0e be
       0.048409022 0.009181566 0.07812628 -0.13896824
000120 b7 ee 4a bd 50 eb e5 3d c4 9f 15 3e 64 44 7e be
       -0.049544062 0.11226523 0.14611727 -0.24830776
000130 7a 41 13 bd 35 3f 83 bc 9c 68 87 bc bd 57 d9 bc
       -0.035951115 -0.01602135 -0.016529374 -0.026531095
000140 c0 43 ea 3c da b9 ba 3d 58 e6 87 bc d5 85 0b 3e
       0.028596759 0.091174796 -0.016589329 0.13625272
000150 e9 4d 8d 3c 60 07 8c bd 1a 7e ec 3c 8a 4a 8d bd
       0.017249065 -0.06837344 0.028868724 -0.06898983
000160 61 86 d1 bd 63 27 53 bd 1e 56 9d 3d 6f ba db 3d
       -0.10230709 -0.051551234 0.07682441 0.10728919
000170 17 4e 44 bd fc b7 9f 3d 4c a1 0a 3d 4c c0 ce bc
       -0.047926035 0.07798764 0.03384523 -0.025238179
000180 d4 4f 31 bd cb 2d 78 3d 09 12 f1 bb 9a 36 01 3d
       -0.04328902 0.060590547 -0.0073568863 0.031546213
000190 8e f1 c6 3d 50 0d 21 3e 8b 90 9f 3d 62 43 3e 3e
       0.09714042 0.15727735 0.07791241 0.18580392
0001a0 fa 18 41 be 02 fc 4b bd 7e 28 fb 3c 80 bc e9 bc
       -0.18857184 -0.04980088 0.030658957 -0.028532267
0001b0 d7 91 2d bd bc e1 c9 bc 6f 9a a8 3d 7a 09 ee 3d
       -0.04237541 -0.024643771 0.08232581 0.11622901
0001c0 97 47 56 3d 0f 63 3b 3b f0 c3 61 3e 8e fa cb 3d
       0.052314367 0.002859298 0.220474 0.09959899
0001d0 b9 79 ec 3c 27 dd e1 bb 49 75 b8 bd d9 e7 06 bc
       0.028866636 -0.0068928185 -0.09006745 -0.008233988
0001e0 50 c5 1f 3d 84 ed 65 bc 1a a4 03 3d 08 96 99 3d
       0.03900653 -0.014033679 0.03213892 0.07499319
0001f0 50 e7 ac 3d dc 82 94 3d ac 0f e3 3c 77 6f 27 3d
       0.08442557 0.07251522 0.027717434 0.040877786
000200 8d 1c 6f bc 60 ff 41 bc d1 06 0a bd e8 30 bc 3d
       -0.014594209 -0.011840671 -0.033697907 0.091890156
000210 23 0c 94 bd 8c c8 03 3d 1f 95 31 bd 52 d8 10 3c
       -0.072288774 0.03217368 -0.043355104 0.008840637
000220 ce 0c b5 bd b2 73 90 bd 27 7e a2 bd ea 0e a7 3d
       -0.08840333 -0.07053317 -0.07934218 0.081571415
000230 04 4b 9b bd b8 6f ac 3d 4f 2c 3c bd 89 dd 5f bd
       -0.075826675 0.08419746 -0.045940693 -0.05465463
000240 a7 d3 c6 ba 46 05 38 bd d1 16 24 bd 44 69 85 3c
       -0.0015169278 -0.044926904 -0.040060822 0.016285546
000250 02 8b 90 bd 33 4e 4d 3c a5 ab d2 bd 60 1f c4 bc
       -0.07057764 0.012530851 -0.10286645 -0.023940742
000260 70 0e 7a bc ec 0c 54 3c 4c c4 c4 bc 60 ea db 3b
       -0.015262231 0.012942534 -0.024019383 0.0067112893
000270 76 c2 92 3d 70 08 a0 bd bf b6 b4 bc 8e d7 39 bd
       0.07165997 -0.07814109 -0.022059796 -0.045371585
000280 e7 9a 9c 3d df f6 b1 bd 08 9a 73 3d 20 07 77 3d
       0.07646733 -0.08689665 0.059473068 0.06030953
000290 34 91 60 3c 99 13 60 bd 2a 24 8e 3d 4a 69 9e bd
       0.013706494 -0.05470619 0.069404915 -0.07734926
0002a0 31 9e b7 3a 1a 37 a2 3d 90 6c 8d bb 97 56 c8 3c
       0.0014008937 0.07920666 -0.00431592 0.024455352
0002b0 11 e3 4f bd 8c f8 be bd 56 ce a4 bd 27 8b c7 bd
       -0.050753657 -0.0932475 -0.08047168 -0.09743338
0002c0 5b c6 d5 bd 86 25 97 3d c8 58 8b 3d 70 0d 3a 3c
       -0.10438224 0.07380204 0.06804043 0.011355743
0002d0 47 b3 91 bd c0 1d ae 3b 35 13 2d 3c 81 0d 6d bd
       -0.071142726 0.005313605 0.010563661 -0.057874206
0002e0 2c 5c 6c bd 5d 37 9e 3c 10 b9 5c bc 58 d3 85 3d
       -0.05770509 0.019313509 -0.013471857 0.06534451
0002f0 ce a1 6c bd 01 26 c1 bd 26 10 8e bd c7 bb 99 3c
       -0.057771496 -0.09431077 -0.06936674 0.018766297
000300 60 65 d4 bc 6d d5 79 bd f8 07 4e bd b4 b1 62 bd
       -0.025927246 -0.060994554 -0.05030057 -0.055345252
000310 52 69 c3 bd 50 55 f5 3c 5c 80 d5 3c fa 7c a0 bd
       -0.09541573 0.029947907 0.026062183 -0.078363374
000320 a9 4a 49 bc 22 8e f1 bb e8 60 ac bd 90 2b 8a bd
       -0.012285867 -0.00737168 -0.08416921 -0.0674659
000330 5e 4a a7 3d 8c 61 8a bd 9e b2 1c bd ed 8b 38 3d
       0.08168481 -0.06756887 -0.03825628 0.04505532
000340 9a 91 9a 3c 6b 08 45 3b 9f bf 8e 3d 46 c9 cc bb
       0.018868256 0.0030064832 0.069701426 -0.0062495796
000350 15 cd 95 bd a9 7c 5d bd 4a 36 b7 3d a7 49 ab bd
       -0.07314507 -0.054073963 0.08945902 -0.083636574
000360 7b 40 43 3d 3d ea 72 bd 7b 18 81 bd d9 5a 3d bd
       0.047668915 -0.05930542 -0.063034974 -0.046229217
000370 62 ee c6 bd 1d 29 dd b9 1a 87 25 3d 40 3e 37 bd
       -0.09713437 -0.00042183037 0.040412046 -0.0447371
000380 d4 8c fa 3c df 6f 72 3d dc 59 7c 3d 8e fc a4 3d
       0.03058473 0.05918872 0.061609134 0.080559835
000390 5a 35 77 3b a9 dd bd bb 4b d6 ee bb 7e e3 bc 3d
       0.003772101 -0.005794246 -0.0072887293 0.09223078
0003a0 25 85 1d bc 69 31 1b bd 72 ab ca bc 37 f8 ca 3d
       -0.009614264 -0.037888918 -0.024739955 0.099106245
0003b0 34 e9 48 bd 0e 5b 5d bd 87 07 ba bd 3e 86 8c bb
       -0.049050525 -0.054041915 -0.09083467 -0.004288464
0003c0 3c f8 cb 3c 0f c0 1a bd b0 cc 9f 3d 6f ae a5 3c
       0.02489864 -0.037780818 0.07802713 0.020224778
0003d0 c0 cf a4 ba d7 6d 92 bd a1 ee 12 bd e7 c1 1e 3d
       -0.0012574121 -0.071498565 -0.035872106 0.03875914
0003e0 6a a1 b3 3d 1c f6 5c bd be 5d 81 bc 13 64 e2 bd
       0.08771022 -0.053945646 -0.01579177 -0.11054244
0003f0 49 76 19 bc 72 58 c7 3c ca 8d 18 bd 3a e4 96 bd
       -0.00936658 0.024334166 -0.037244596 -0.073677495

fc2.bias f4 [84]
000000 24 e4 84 3b 4b 18 e4 bc ed b3 62 bd f9 07 cf bc
       0.004055517 -0.027843615 -0.05534737 -0.025272356
000010 e8 8e a4 bd fb f5 3f 3e b9 89 f6 3d 57 e8 27 3e
       -0.0803507 0.18746178 0.12037987 0.16397224
000020 df 60 b1 bc 4a 63 ea 3d 87 82 37 3e ae 89 b3 3d
       -0.021652637 0.11444719 0.17920886 0.08766495
000030 16 f2 8d 3e 03 87 b8 3b 22 d1 b3 bd 8f b2 b9 3d
       0.2772376 0.005631329 -0.08780123 0.090672605
000040 dd 87 88 3d 4f 99 00 3d d6 a3 d9 3b 30 8c 34 be
       0.06666539 0.031396206 0.006641845 -0.17631602
000050 37 7b 72 3d f7 d3 c6 bd 72 4e 8d 3d 0a 46 18 3e
       0.059199538 -0.09708398 0.06899728 0.14870468
000060 11 ef 84 bd b9 75 c0 bd 5e 16 fc 3d 10 0f 79 3e
       -0.06490911 -0.09397454 0.12308954 0.24322152
000070 d3 28 b0 bd 86 c4 19 3d 7d 59 1a 3e af 62 be bd
       -0.086015366 0.037540935 0.150732 -0.09296166
000080 87 b1 cf 38 4f d8 97 3e 01 39 d4 bd bf e0 b2 3d
       9.903596e-05 0.29657218 -0.10362435 0.08734273
000090 dd 4e 60 3e 1b 52 73 bd 22 a9 87 3e dd 8d 3d 3e
       0.21905084 -0.059404474 0.26496226 0.18511148
0000a0 30 fc 4b be 91 b0 c8 3d 40 12 90 bd 34 bc 82 3d
       -0.1992042 0.09799302 -0.07034731 0.06383553
0000b0 3e 41 84 3d 53 8b cc 3c c9 32 26 3e 06 57 8a 3d
       0.064577565 0.024968779 0.1623031 0.0675488
0000c0 d1 14 c1 bd 9d cc ae bd b3 78 c6 bd 2d 82 e2 bc
       -0.094277985 -0.08535121 -0.0969099 -0.027649963
0000d0 82 4c b9 3d 54 ff 45 3e 67 df 37 3e d8 38 6f 3e
       0.09047796 0.19335681 0.17956315 0.23361528
0000e0 b6 7e 6d 3e 32 e7 07 3e 13 e7 aa 3e fc 43 6e 3d
       0.23192868 0.13271788 0.3337942 0.058170304
0000f0 b6 a0 45 be 0f e3 65 3e 23 1b b3 bb 7d 7a a5 3c
       -0.19299588 0.22449897 -0.0054658814 0.020200009
000100 6a c4 0c 3e 44 9e 40 3e 95 0f ab bc 13 30 08 be
       0.13746801 0.18810374 -0.020881454 -0.13299589
000110 5f 73 8c 3d 5c 24 41 3e e1 f1 1d bd 33 ed 12 bd
       0.06857943 0.18861526 -0.03856075 -0.035870742
000120 ab dd dc bc 48 6f 2b 3d 22 43 fd 3d 5b 2a b0 3b
       -0.026961168 0.041854173 0.1236632 0.005376143
000130 ce 3d b7 3c cf 69 92 3b 45 8e 4f 3e d9 53 f3 3c
       0.022368338 0.00446818 0.20269115 0.029703068
000140 21 97 4e 3d b3 51 5e 3e c1 1b 6b bd 2f 59 e6 3c
       0.050437097 0.21710853 -0.057399515 0.028118698

fc3.weight f4 [10, 84]
000000 3b 1a 64 3e df f3 e9 3b a6 2b 81 bd 48 c2 95 bd
       0.22275631 0.0071396674 -0.063071534 -0.07312447
000010 6f 77 94 bd 9d 54 55 be fa e8 9b bd 51 b1 a0 3d
       -0.07249343 -0.20833059 -0.07612796 0.078463204
000020 3d e8 f8 bd ea 47 23 3e a3 db c9 bd b1 b0 21 bc
       -0.12153671 0.15945402 -0.098563455 -0.009868787
000030 8d 3f 49 3e 8e 63 f3 bd 70 33 f7 3d 91 36 2a 3e
       0.19653149 -0.11884223 0.12070358 0.16622378
000040 26 cf df 3c be c6 36 be 17 74 e5 bd d5 3b 2a 3c
       0.027320456 -0.17849252 -0.11203783 0.010390242
000050 cb 7c ee bc c3 0e 2c 3e 61 73 aa bd 10 02 23 be
       -0.02911224 0.16802506 -0.08322788 -0.15918756
000060 df b1 0d 3e 2b bd ea bd ab 64 55 bc 50 b7 08 3d
       0.13837384 -0.11461862 -0.013024489 0.033377945
000070 f9 cc b1 3d 90 27 05 be a3 9c b5 3d 99 2d 76 bd
       0.086816736 -0.13003373 0.08867767 -0.06010208
000080 58 87 40 be 4f 87 1d be b3 1a 0c bc 6f 9b 21 be
       -0.1880163 -0.15383647 -0.008551287 -0.1578195
000090 bc d0 e5 3d 9d 11 56 be 0c 36 07 3e 75 68 22 be
       0.112214535 -0.20905156 0.13204211 -0.1586016
0000a0 1e 5f 07 3e cb 75 81 bd a7 eb a3 bd 38 8b 79 bd
       0.13219878 -0.06321295 -0.080039315 -0.060923785
0000b0 c0 34 e6 3d 51 9a 17 3e 35 87 e4 bd ac 49 cb bb
       0.1124053 0.14804961 -0.11158601 -0.0062038507
0000c0 2a 2a 2a 3e 59 25 7a bc 04 8c 61 bb 1a 6c bf 3d
       0.16617647 -0.015267693 -0.0034415731 0.093467906
0000d0 0d 54 ae bd e6 19 54 be 53 bb 0f be 08 d1 b8 3d
       -0.08512125 -0.20713004 -0.14036302 0.090242445
0000e0 98 2c 3e be f9 a7 ad 3d 82 97 87 3d 9b f9 da 3d
       -0.18571699 0.08479304 0.06620695 0.1069214
0000f0 cf f3 76 3d 43 bb ed bb 22 a5 77 bd 7c 2e 68 3e
       0.060291108 -0.0072549894 -0.060460217 0.22673982
000100 3f c3 1c be 73 bc 8b bc 80 ab 8b 3c 6c ec d0 3d
       -0.15308855 -0.017057633 0.017049551 0.10201344
000110 aa eb 23 be ed 81 f1 3d 83 bc e1 3b 05 58 b0 bc
       -0.16007867 0.117923595 0.0068889274 -0.021526346
000120 4e 2a e3 bd a8 ed 0c be a6 93 2f be e3 3a e7 3d
       -0.11092053 -0.13762534 -0.17146167 0.112905286
000130 45 95 38 bd 74 32 ad bd 74 1a f4 bc af 92 93 3d
       -0.04506423 -0.08456889 -0.02979777 0.07205712
000140 10 fc 0e be ac 75 93 bc 30 f4 ec 3d b0 af b5 3d
       -0.13963342 -0.018000446 0.115700126 0.088714
000150 02 c8 e2 bd 18 db d0 bc 47 69 81 bd 58 cd e5 3d
       -0.11073305 -0.025495097 -0.06318908 0.11220807
000160 6d c1 0e 3e 2a 13 5a be 9d 1d e9 3d 93 e2 97 3c
       0.13940974 -0.21296373 0.113826014 0.018540656
000170 45 c8 9a 3a 4f e3 9c 3d d4 41 d1 bd f0 ba 2f be
       0.0011808953 0.07660543 -0.10217634 -0.17161155
000180 e9 ae 0b be 9b e2 fc bd 1c 20 67 3c d4 e2 10 bd
       -0.13640942 -0.12347909 0.014106777 -0.03537257
000190 cc fd f3 bd c7 fb ba 3d 0b f4 dc 3d 9f d7 d7 3d
       -0.11913642 0.09130054 0.10788735 0.10539173
0001a0 8c 6d 41 3d f6 0b 0f be 85 29 e6 bd 09 b4 74 3d
       0.047223613 -0.13969406 -0.11238388 0.059742007
0001b0 99 0e 08 3e 7b 40 6a bd bc fc 5e be 7a 89 f9 bd
       0.13286819 -0.0571904 -0.21776098 -0.12184425
0001c0 c2 8e bc 3d ac 16 e5 bd 17 64 37 be 11 81 0b 3e
       0.092069164 -0.11185965 -0.17909275 0.13623454
0001d0 d2 8a 03 bc 5a 02 2e be 25 0e b8 3d ea c7 b7 3d
       -0.008028703 -0.16993085 0.08987073 0.089736775
0001e0 b8 53 1d be c2 46 6f be 7a 65 83 be 8c 96 31 bd
       -0.15363967 -0.23366836 -0.25663358 -0.043356463
0001f0 f1 6a bb bc da bc bb bd 84 cf 32 bd b0 69 d0 3d
       -0.022878142 -0.0916688 -0.043654934 0.10176408
000200 04 c5 45 3d 84 d2 f3 3d e9 12 2c be a4 97 34 be
       0.048283592 0.11905387 -0.16804089 -0.17635971
000210 52 5f a3 3d 65 74 c4 3c 4e 15 17 be c7 28 1e bd
       0.07977165 0.023981282 -0.14754221 -0.038613107
000220 2c bc f4 bd c2 ff 12 be 42 ec 03 be f6 18 e7 3c
       -0.119499534 -0.14355376 -0.12883094 0.028210144
000230 e4 5e db 3b 30 fc cd 3b 79 38 78 be 09 a0 25 be
       0.0066946615 0.0062861666 -0.24240293 -0.1617433
000240 4c 11 0f 3e 57 49 6c 3d e6 41 5f bc e6 7b f8 bb
       0.13971442 0.05768713 -0.013626551 -0.007583129
000250 0b 58 04 be 89 72 51 be b7 76 70 be 0c f3 a0 bd
       -0.1292421 -0.20453848 -0.23482786 -0.078588575
000260 0c 26 c6 bd f8 6c ff bc 62 4c f3 3d 34 bb 39 bd
       -0.096752256 -0.03117989 0.11879803 -0.045344546
000270 2b 94 f0 3d 03 ca e6 3c 87 1f 49 bd c2 fc 53 bd
       0.11747011 0.028172499 -0.049102332 -0.05175472
000280 15 92 dd bd d3 a0 18 3e bd 80 4d bc 2e d9 83 bd
       -0.108188786 0.149051 -0.012542901 -0.06437908
000290 76 91 56 bc 16 2c 9f bd a8 f5 ef bd ff 58 d6 bd
       -0.013096204 -0.077720806 -0.11716777 -0.104661934
0002a0 b7 58 d4 3d b0 a5 dc 3c c3 98 cb bd 3e 0e a0 ba
       0.103684835 0.026934475 -0.09941246 -0.0012211276
0002b0 9d 2c 19 be 34 7a 94 bc eb 2c 14 3e 13 c4 80 3a
       -0.14958425 -0.018124677 0.1447026 0.000982406
0002c0 ad 07 36 bd 86 10 4e 3c a0 eb 1d 3d 9b 3e de 3d
       -0.044440914 0.012577182 0.038554788 0.10851785
0002d0 c1 5f b1 3d 3c 88 a5 bd e7 ab 0e bd f1 05 2a bd
       0.08660842 -0.08082625 -0.034831908 -0.041509572
0002e0 0d f0 1d be 51 32 f4 bd 10 9d 38 be c8 10 10 3d
       -0.15423603 -0.119236596 -0.18028665 0.035172254
0002f0 41 34 f8 bc d6 35 6f bd 20 74 06 3c 3c bc 72 bd
       -0.030298354 -0.05840095 0.008206397 -0.059261546
000300 10 3c 0b be 89 1d c0 bd b7 bc 94 bd 91 5d 51 3e
       -0.13597131 -0.093806334 -0.07262557 0.20445849
000310 c3 a1 1b 3d 81 8d 34 3d a6 fc 55 3b c6 c6 16 bd
       0.037996065 0.04408026 0.003265181 -0.03681066
000320 56 b2 e3 3d 93 f0 fe 3d d7 7b 3f 3d 56 31 00 3e
       0.11117999 0.1244823 0.046748962 0.1251882
000330 d2 b3 2a bc 91 29 ee 3c 0a 8f cd 3c e2 b2 59 3e
       -0.010418849 0.029072555 0.02509262 0.21259645
000340 bb 7e 9b bd 53 d8 e1 3c 62 a3 41 bd 6c 4f 08 be
       -0.07592531 0.027568972 -0.047274955 -0.13311547
000350 b3 24 28 bc f7 69 eb bc 73 6f 72 bd 45 a8 fd 3d
       -0.010262656 -0.028737051 -0.059188318 0.123856105
000360 31 8a 91 bc 50 6a ad bd 53 02 eb bd 05 23 2b be
       -0.01776609 -0.08467543 -0.11475053 -0.16712578
000370 ae 1d 81 bd 27 47 a4 bd 2c 4f 37 be 48 21 96 3d
       -0.06304489 -0.08021384 -0.17901295 0.07330567
000380 2c 30 90 3d 5a 9e 08 3d 32 22 cf 3d 34 ff 80 bd
       0.07040438 0.03335414 0.10113944 -0.06298676
000390 23 fe fe bd 83 9c 23 3e 75 3e b4 3d 30 10 21 3e
       -0.124508165 0.15977673 0.08800975 0.15728831
0003a0 12 25 37 3d e6 16 33 3d 5e dc 35 bd cd 1f bb 3d
       0.044713087 0.04372301 -0.04439961 0.09136925
0003b0 57 7c d8 3d 68 0b 0d 3e 74 f2 1a be c6 46 f2 3d
       0.10570591 0.13773882 -0.15131551 0.11829905
0003c0 24 54 e9 bd 40 70 f2 bd d4 cc 5c bb 98 42 11 3e
       -0.11393002 -0.11837816 -0.0033691423 0.1418556
0003d0 fe 9f ea 3b 00 c8 02 bd b7 4d af bd 42 cf 16 3d
       0.007160186 -0.031929016 -0.08559745 0.03681875
0003e0 b3 5d a5 bd f9 76 fa 3d 30 37 23 be 92 71 56 be
       -0.08074512 0.122297235 -0.15939021 -0.20941761
0003f0 35 08 fa bd b9 2e b4 bd 74 e8 44 bd c6 ff 18 3d
       -0.122085966 -0.08797974 -0.048073247 0.0373533

fc3.bias f4 [10]
000000 f6 bf 14 3c 4b be 17 be 2d b3 9f 3d c2 53 ea 3d
       0.00907897 -0.14818685 0.07797847 0.11441757
000010 01 0d 3f 3e 68 68 df bd 9a 96 b7 3d 16 6a 41 bc
       0.18657304 -0.10908586 0.08964272 -0.011805078
000020 3c 0d e7 3d 53 9d aa bb
       0.11281821 -0.005206743
